…
2025-05-22 02:35:07.432468: I tensorflow/core/platform/cpu_feature_guard.cc:182] This TensorFlow binary is optimized to use available CPU instructions in performance-critical operations.
To enable the following instructions: AVX2 AVX_VNNI FMA, in other operations, rebuild TensorFlow with the appropriate compiler flags.
Found 17453 files belonging to 15 classes.
Found 3089 files belonging to 15 classes.
Model: "sequential"
_________________________________________________________________
 Layer (type)                Output Shape              Param #   
=================================================================
 conv2d (Conv2D)             (None, 128, 128, 32)      896       
                                                                 
 batch_normalization (Batch  (None, 128, 128, 32)      128       
 Normalization)                                                  
                                                                 
 activation (Activation)     (None, 128, 128, 32)      0         
                                                                 
 conv2d_1 (Conv2D)           (None, 126, 126, 32)      9248      
                                                                 
 batch_normalization_1 (Bat  (None, 126, 126, 32)      128       
 chNormalization)                                                
                                                                 
 activation_1 (Activation)   (None, 126, 126, 32)      0         
                                                                 
 max_pooling2d (MaxPooling2  (None, 63, 63, 32)        0         
 D)                                                              
                                                                 
 conv2d_2 (Conv2D)           (None, 63, 63, 64)        18496     
                                                                 
 batch_normalization_2 (Bat  (None, 63, 63, 64)        256       
 chNormalization)                                                
                                                                 
 activation_2 (Activation)   (None, 63, 63, 64)        0         
                                                                 
 conv2d_3 (Conv2D)           (None, 61, 61, 64)        36928     
                                                                 
 batch_normalization_3 (Bat  (None, 61, 61, 64)        256       
 chNormalization)                                                
                                                                 
 activation_3 (Activation)   (None, 61, 61, 64)        0         
                                                                 
 max_pooling2d_1 (MaxPoolin  (None, 30, 30, 64)        0         
 g2D)                                                            
                                                                 
 conv2d_4 (Conv2D)           (None, 30, 30, 128)       73856     
                                                                 
 batch_normalization_4 (Bat  (None, 30, 30, 128)       512       
 chNormalization)                                                
                                                                 
 activation_4 (Activation)   (None, 30, 30, 128)       0         
                                                                 
 conv2d_5 (Conv2D)           (None, 28, 28, 128)       147584    
                                                                 
 batch_normalization_5 (Bat  (None, 28, 28, 128)       512       
 chNormalization)                                                
                                                                 
 activation_5 (Activation)   (None, 28, 28, 128)       0         
                                                                 
 max_pooling2d_2 (MaxPoolin  (None, 14, 14, 128)       0         
 g2D)                                                            
                                                                 
 dropout (Dropout)           (None, 14, 14, 128)       0         
                                                                 
 flatten (Flatten)           (None, 25088)             0         
                                                                 
 dense (Dense)               (None, 512)               12845568  
                                                                 
 dropout_1 (Dropout)         (None, 512)               0         
                                                                 
 dense_1 (Dense)             (None, 15)                7695      
                                                                 
=================================================================
Total params: 13142063 (50.13 MB)
Trainable params: 13141167 (50.13 MB)
Non-trainable params: 896 (3.50 KB)
_________________________________________________________________
Epoch 1/8
  1/546 [..............................] - ETA: 8:40 - loss: 4.3846 - accura
…
